…
skipped 188630_Android_58a6822d7140137ce957c6d2fc20bae1374186c1_after_1.c because _after_
load json -> msr mapping: 117319it [03:59, 429.12it/s]skipped 188633_Android_d72ea85c78a1a68bf99fd5804ad9784b4102fe57_after_1.c because _after_
skipped 188634_Android_9fe27a9b445f7e911286ed31c1087ceac567736b_after_1.c because _after_
skipped 188635_Android_d4a34fefbf292d1e02336e4e272da3ef1e3eef85_after_1.c because _after_
load json -> msr mapping: 117325it [03:59, 488.86it/s]
7305 keys missing from splits.csv
skipped 13051 keys
[08/15/2022 - 21:47:59] File "Devign/main.py", line 85  	92711	5746	5817	0	
model: DevignModel(
  (ggnn): GatedGraphConv(
    (linears): ModuleList(
      (0): Linear(in_features=200, out_features=200, bias=True)
      (1): Linear(in_features=200, out_features=200, bias=True)
      (2): Linear(in_features=200, out_features=200, bias=True)
      (3): Linear(in_features=200, out_features=200, bias=True)
      (4): Linear(in_features=200, out_features=200, bias=True)
    )
    (gru): GRUCell(200, 200)
  )
  (conv_l1): Conv1d(200, 200, kernel_size=(3,), stride=(1,))
  (maxpool1): MaxPool1d(kernel_size=3, stride=2, padding=0, dilation=1, ceil_mode=False)
  (conv_l2): Conv1d(200, 200, kernel_size=(1,), stride=(1,))
  (maxpool2): MaxPool1d(kernel_size=2, stride=2, padding=0, dilation=1, ceil_mode=False)
  (conv_l1_for_concat): Conv1d(369, 369, kernel_size=(3,), stride=(1,))
  (maxpool1_for_concat): MaxPool1d(kernel_size=3, stride=2, padding=0, dilation=1, ceil_mode=False)
  (conv_l2_for_concat): Conv1d(369, 369, kernel_size=(1,), stride=(1,))
  (maxpool2_for_concat): MaxPool1d(kernel_size=2, stride=2, padding=0, dilation=1, ceil_mode=False)
  (mlp_z): Linear(in_features=369, out_features=1, bias=True)
  (mlp_y): Linear(in_features=200, out_features=1, bias=True)
  (sigmoid): Sigmoid()
)
[08/15/2022 - 21:47:59] File "Devign/main.py", line 100  	Total Parameters : 1148553	
[08/15/2022 - 21:47:59] File "Devign/main.py", line 101  	####################################################################################################	
[08/15/2022 - 21:48:03] File "/home/<ANONYMOUS>/code/ReVeal/Devign/trainer.py", line 66  	Start Training	
…
