…
]load json -> msr mapping: 143377it [04:06, 454.32it/s]load json -> msr mapping: 143423it [04:06, 434.67it/s]load json -> msr mapping: 143467it [04:06, 427.69it/s]load json -> msr mapping: 143511it [04:06, 385.04it/s]load json -> msr mapping: 143566it [04:06, 427.81it/s]load json -> msr mapping: 143612it [04:07, 436.49it/s]load json -> msr mapping: 143648it [04:07, 581.20it/s]
120475 keys missing from splits.csv
skipped 126221 keys
[08/14/2022 - 20:26:29] File "Devign/main.py", line 83  	12914	1316	3197	0	
model: DevignModel(
  (ggnn): GatedGraphConv(
    (linears): ModuleList(
      (0): Linear(in_features=200, out_features=200, bias=True)
      (1): Linear(in_features=200, out_features=200, bias=True)
      (2): Linear(in_features=200, out_features=200, bias=True)
      (3): Linear(in_features=200, out_features=200, bias=True)
      (4): Linear(in_features=200, out_features=200, bias=True)
    )
    (gru): GRUCell(200, 200)
  )
  (conv_l1): Conv1d(200, 200, kernel_size=(3,), stride=(1,))
  (maxpool1): MaxPool1d(kernel_size=3, stride=2, padding=0, dilation=1, ceil_mode=False)
  (conv_l2): Conv1d(200, 200, kernel_size=(1,), stride=(1,))
  (maxpool2): MaxPool1d(kernel_size=2, stride=2, padding=0, dilation=1, ceil_mode=False)
  (conv_l1_for_concat): Conv1d(369, 369, kernel_size=(3,), stride=(1,))
  (maxpool1_for_concat): MaxPool1d(kernel_size=3, stride=2, padding=0, dilation=1, ceil_mode=False)
  (conv_l2_for_concat): Conv1d(369, 369, kernel_size=(1,), stride=(1,))
  (maxpool2_for_concat): MaxPool1d(kernel_size=2, stride=2, padding=0, dilation=1, ceil_mode=False)
  (mlp_z): Linear(in_features=369, out_features=1, bias=True)
  (mlp_y): Linear(in_features=200, out_features=1, bias=True)
  (sigmoid): Sigmoid()
)
[08/14/2022 - 20:26:30] File "Devign/main.py", line 101  	Total Parameters : 1148553	
[08/14/2022 - 20:26:30] File "Devign/main.py", line 102  	####################################################################################################	
[08/14/2022 - 20:26:33] File "/home/<ANONYMOUS>/code/ReVeal/Devign/trainer.py", line 66  	Start Training	
…
