…
PRINTING DEBUG 8 29 train 29 65 0 Graph(num_nodes=65, num_edges=386,
      ndata_schemes={'features': Scheme(shape=(169,), dtype=torch.float32)}
      edata_schemes={'etype': Scheme(shape=(), dtype=torch.int64)})
PRINTING DEBUG 9 30 test 30 8 0 Graph(num_nodes=8, num_edges=37,
      ndata_schemes={'features': Scheme(shape=(169,), dtype=torch.float32)}
      edata_schemes={'etype': Scheme(shape=(), dtype=torch.int64)})
skipped 105125 keys
[08/28/2022 - 03:52:17] File "Devign/main.py", line 90  	22007	2658	13858	0	
model: DevignModel(
  (ggnn): GatedGraphConv(
    (linears): ModuleList(
      (0): Linear(in_features=200, out_features=200, bias=True)
      (1): Linear(in_features=200, out_features=200, bias=True)
      (2): Linear(in_features=200, out_features=200, bias=True)
      (3): Linear(in_features=200, out_features=200, bias=True)
      (4): Linear(in_features=200, out_features=200, bias=True)
    )
    (gru): GRUCell(200, 200)
  )
  (conv_l1): Conv1d(200, 200, kernel_size=(3,), stride=(1,))
  (maxpool1): MaxPool1d(kernel_size=3, stride=2, padding=0, dilation=1, ceil_mode=False)
  (conv_l2): Conv1d(200, 200, kernel_size=(1,), stride=(1,))
  (maxpool2): MaxPool1d(kernel_size=2, stride=2, padding=0, dilation=1, ceil_mode=False)
  (conv_l1_for_concat): Conv1d(369, 369, kernel_size=(3,), stride=(1,))
  (maxpool1_for_concat): MaxPool1d(kernel_size=3, stride=2, padding=0, dilation=1, ceil_mode=False)
  (conv_l2_for_concat): Conv1d(369, 369, kernel_size=(1,), stride=(1,))
  (maxpool2_for_concat): MaxPool1d(kernel_size=2, stride=2, padding=0, dilation=1, ceil_mode=False)
  (mlp_z): Linear(in_features=369, out_features=1, bias=True)
  (mlp_y): Linear(in_features=200, out_features=1, bias=True)
  (sigmoid): Sigmoid()
)
[08/28/2022 - 03:52:17] File "Devign/main.py", line 105  	Total Parameters : 1148553	
[08/28/2022 - 03:52:17] File "Devign/main.py", line 106  	####################################################################################################	
[08/28/2022 - 03:52:20] File "/home/<ANONYMOUS>/code/ReVeal/Devign/trainer.py", line 66  	Start Training	
…
