…
PRINTING DEBUG 8 189 train 189 11 0 Graph(num_nodes=11, num_edges=51,
      ndata_schemes={'features': Scheme(shape=(169,), dtype=torch.float32)}
      edata_schemes={'etype': Scheme(shape=(), dtype=torch.int64)})
PRINTING DEBUG 9 190 train 190 10 0 Graph(num_nodes=10, num_edges=46,
      ndata_schemes={'features': Scheme(shape=(169,), dtype=torch.float32)}
      edata_schemes={'etype': Scheme(shape=(), dtype=torch.int64)})
skipped 103573 keys
[08/25/2022 - 15:56:02] File "Devign/main.py", line 88  	11053	1345	1354	0	
model: DevignModel(
  (ggnn): GatedGraphConv(
    (linears): ModuleList(
      (0): Linear(in_features=200, out_features=200, bias=True)
      (1): Linear(in_features=200, out_features=200, bias=True)
      (2): Linear(in_features=200, out_features=200, bias=True)
      (3): Linear(in_features=200, out_features=200, bias=True)
      (4): Linear(in_features=200, out_features=200, bias=True)
    )
    (gru): GRUCell(200, 200)
  )
  (conv_l1): Conv1d(200, 200, kernel_size=(3,), stride=(1,))
  (maxpool1): MaxPool1d(kernel_size=3, stride=2, padding=0, dilation=1, ceil_mode=False)
  (conv_l2): Conv1d(200, 200, kernel_size=(1,), stride=(1,))
  (maxpool2): MaxPool1d(kernel_size=2, stride=2, padding=0, dilation=1, ceil_mode=False)
  (conv_l1_for_concat): Conv1d(369, 369, kernel_size=(3,), stride=(1,))
  (maxpool1_for_concat): MaxPool1d(kernel_size=3, stride=2, padding=0, dilation=1, ceil_mode=False)
  (conv_l2_for_concat): Conv1d(369, 369, kernel_size=(1,), stride=(1,))
  (maxpool2_for_concat): MaxPool1d(kernel_size=2, stride=2, padding=0, dilation=1, ceil_mode=False)
  (mlp_z): Linear(in_features=369, out_features=1, bias=True)
  (mlp_y): Linear(in_features=200, out_features=1, bias=True)
  (sigmoid): Sigmoid()
)
[08/25/2022 - 15:56:02] File "Devign/main.py", line 103  	Total Parameters : 1148553	
[08/25/2022 - 15:56:02] File "Devign/main.py", line 104  	####################################################################################################	
loading weights for holdout models/MSR/devign/vbugtype_mixed/1/GGNNSumModel-model.bin
…
