…
      edata_schemes={'etype': Scheme(shape=(), dtype=torch.int64)})
PRINTING DEBUG 8 8 train 8 23 0 Graph(num_nodes=23, num_edges=98,
      ndata_schemes={'features': Scheme(shape=(169,), dtype=torch.float32)}
      edata_schemes={'etype': Scheme(shape=(), dtype=torch.int64)})
PRINTING DEBUG 9 9 train 9 23 0 Graph(num_nodes=23, num_edges=113,
      ndata_schemes={'features': Scheme(shape=(169,), dtype=torch.float32)}
      edata_schemes={'etype': Scheme(shape=(), dtype=torch.int64)})
skipped 25016 keys
[08/25/2022 - 16:37:24] File "Devign/main.py", line 88  	74026	9069	9214	0	
model: DevignModel(
  (ggnn): GatedGraphConv(
    (linears): ModuleList(
      (0): Linear(in_features=200, out_features=200, bias=True)
      (1): Linear(in_features=200, out_features=200, bias=True)
      (2): Linear(in_features=200, out_features=200, bias=True)
      (3): Linear(in_features=200, out_features=200, bias=True)
      (4): Linear(in_features=200, out_features=200, bias=True)
    )
    (gru): GRUCell(200, 200)
  )
  (conv_l1): Conv1d(200, 200, kernel_size=(3,), stride=(1,))
  (maxpool1): MaxPool1d(kernel_size=3, stride=2, padding=0, dilation=1, ceil_mode=False)
  (conv_l2): Conv1d(200, 200, kernel_size=(1,), stride=(1,))
  (maxpool2): MaxPool1d(kernel_size=2, stride=2, padding=0, dilation=1, ceil_mode=False)
  (conv_l1_for_concat): Conv1d(369, 369, kernel_size=(3,), stride=(1,))
  (maxpool1_for_concat): MaxPool1d(kernel_size=3, stride=2, padding=0, dilation=1, ceil_mode=False)
  (conv_l2_for_concat): Conv1d(369, 369, kernel_size=(1,), stride=(1,))
  (maxpool2_for_concat): MaxPool1d(kernel_size=2, stride=2, padding=0, dilation=1, ceil_mode=False)
  (mlp_z): Linear(in_features=369, out_features=1, bias=True)
  (mlp_y): Linear(in_features=200, out_features=1, bias=True)
  (sigmoid): Sigmoid()
)
[08/25/2022 - 16:37:24] File "Devign/main.py", line 103  	Total Parameters : 1148553	
[08/25/2022 - 16:37:24] File "Devign/main.py", line 104  	####################################################################################################	
loading weights for holdout models/MSR/devign/vbugtype_privilege_escalation_authorization/1/GGNNSumModel-model.bin
…
