…
5it [04:03, 125.49it/s]load json -> msr mapping: 117080it [04:03, 170.11it/s]load json -> msr mapping: 117101it [04:04, 149.28it/s]load json -> msr mapping: 117140it [04:04, 199.27it/s]load json -> msr mapping: 117237it [04:04, 376.62it/s]load json -> msr mapping: 117303it [04:04, 446.63it/s]load json -> msr mapping: 117325it [04:04, 479.90it/s]
100684 keys missing from splits.csv
5746 keys skipped because _after_
skipped 106430 keys
[08/19/2022 - 08:48:52] File "Devign/main.py", line 85  	8762	1039	1094	0	
model: DevignModel(
  (ggnn): GatedGraphConv(
    (linears): ModuleList(
      (0): Linear(in_features=200, out_features=200, bias=True)
      (1): Linear(in_features=200, out_features=200, bias=True)
      (2): Linear(in_features=200, out_features=200, bias=True)
      (3): Linear(in_features=200, out_features=200, bias=True)
      (4): Linear(in_features=200, out_features=200, bias=True)
    )
    (gru): GRUCell(200, 200)
  )
  (conv_l1): Conv1d(200, 200, kernel_size=(3,), stride=(1,))
  (maxpool1): MaxPool1d(kernel_size=3, stride=2, padding=0, dilation=1, ceil_mode=False)
  (conv_l2): Conv1d(200, 200, kernel_size=(1,), stride=(1,))
  (maxpool2): MaxPool1d(kernel_size=2, stride=2, padding=0, dilation=1, ceil_mode=False)
  (conv_l1_for_concat): Conv1d(369, 369, kernel_size=(3,), stride=(1,))
  (maxpool1_for_concat): MaxPool1d(kernel_size=3, stride=2, padding=0, dilation=1, ceil_mode=False)
  (conv_l2_for_concat): Conv1d(369, 369, kernel_size=(1,), stride=(1,))
  (maxpool2_for_concat): MaxPool1d(kernel_size=2, stride=2, padding=0, dilation=1, ceil_mode=False)
  (mlp_z): Linear(in_features=369, out_features=1, bias=True)
  (mlp_y): Linear(in_features=200, out_features=1, bias=True)
  (sigmoid): Sigmoid()
)
[08/19/2022 - 08:48:52] File "Devign/main.py", line 100  	Total Parameters : 1148553	
[08/19/2022 - 08:48:52] File "Devign/main.py", line 101  	####################################################################################################	
[08/19/2022 - 08:48:56] File "/home/<ANONYMOUS>/code/ReVeal/Devign/trainer.py", line 66  	Start Training	
…
