…
47it [03:44, 131.58it/s]load json -> msr mapping: 117082it [03:44, 179.46it/s]load json -> msr mapping: 117103it [03:44, 171.34it/s]load json -> msr mapping: 117143it [03:44, 225.57it/s]load json -> msr mapping: 117240it [03:44, 413.73it/s]load json -> msr mapping: 117310it [03:44, 489.57it/s]load json -> msr mapping: 117325it [03:45, 521.38it/s]
89861 keys missing from splits.csv
5746 keys skipped because _after_
skipped 95607 keys
[08/19/2022 - 07:41:55] File "Devign/main.py", line 85  	17389	2141	2188	0	
model: DevignModel(
  (ggnn): GatedGraphConv(
    (linears): ModuleList(
      (0): Linear(in_features=200, out_features=200, bias=True)
      (1): Linear(in_features=200, out_features=200, bias=True)
      (2): Linear(in_features=200, out_features=200, bias=True)
      (3): Linear(in_features=200, out_features=200, bias=True)
      (4): Linear(in_features=200, out_features=200, bias=True)
    )
    (gru): GRUCell(200, 200)
  )
  (conv_l1): Conv1d(200, 200, kernel_size=(3,), stride=(1,))
  (maxpool1): MaxPool1d(kernel_size=3, stride=2, padding=0, dilation=1, ceil_mode=False)
  (conv_l2): Conv1d(200, 200, kernel_size=(1,), stride=(1,))
  (maxpool2): MaxPool1d(kernel_size=2, stride=2, padding=0, dilation=1, ceil_mode=False)
  (conv_l1_for_concat): Conv1d(369, 369, kernel_size=(3,), stride=(1,))
  (maxpool1_for_concat): MaxPool1d(kernel_size=3, stride=2, padding=0, dilation=1, ceil_mode=False)
  (conv_l2_for_concat): Conv1d(369, 369, kernel_size=(1,), stride=(1,))
  (maxpool2_for_concat): MaxPool1d(kernel_size=2, stride=2, padding=0, dilation=1, ceil_mode=False)
  (mlp_z): Linear(in_features=369, out_features=1, bias=True)
  (mlp_y): Linear(in_features=200, out_features=1, bias=True)
  (sigmoid): Sigmoid()
)
[08/19/2022 - 07:41:55] File "Devign/main.py", line 100  	Total Parameters : 1148553	
[08/19/2022 - 07:41:55] File "Devign/main.py", line 101  	####################################################################################################	
[08/19/2022 - 07:41:58] File "/home/<ANONYMOUS>/code/ReVeal/Devign/trainer.py", line 66  	Start Training	
…
