…
83it [05:03, 144.11it/s]load json -> msr mapping: 117100it [05:03, 136.23it/s]load json -> msr mapping: 117137it [05:03, 191.98it/s]load json -> msr mapping: 117186it [05:03, 267.82it/s]load json -> msr mapping: 117268it [05:03, 415.63it/s]load json -> msr mapping: 117313it [05:03, 410.89it/s]load json -> msr mapping: 117325it [05:03, 385.99it/s]
91029 keys missing from splits.csv
5746 keys skipped because _after_
skipped 96775 keys
[08/18/2022 - 22:08:09] File "Devign/main.py", line 85  	16479	2032	2039	0	
model: DevignModel(
  (ggnn): GatedGraphConv(
    (linears): ModuleList(
      (0): Linear(in_features=200, out_features=200, bias=True)
      (1): Linear(in_features=200, out_features=200, bias=True)
      (2): Linear(in_features=200, out_features=200, bias=True)
      (3): Linear(in_features=200, out_features=200, bias=True)
      (4): Linear(in_features=200, out_features=200, bias=True)
    )
    (gru): GRUCell(200, 200)
  )
  (conv_l1): Conv1d(200, 200, kernel_size=(3,), stride=(1,))
  (maxpool1): MaxPool1d(kernel_size=3, stride=2, padding=0, dilation=1, ceil_mode=False)
  (conv_l2): Conv1d(200, 200, kernel_size=(1,), stride=(1,))
  (maxpool2): MaxPool1d(kernel_size=2, stride=2, padding=0, dilation=1, ceil_mode=False)
  (conv_l1_for_concat): Conv1d(369, 369, kernel_size=(3,), stride=(1,))
  (maxpool1_for_concat): MaxPool1d(kernel_size=3, stride=2, padding=0, dilation=1, ceil_mode=False)
  (conv_l2_for_concat): Conv1d(369, 369, kernel_size=(1,), stride=(1,))
  (maxpool2_for_concat): MaxPool1d(kernel_size=2, stride=2, padding=0, dilation=1, ceil_mode=False)
  (mlp_z): Linear(in_features=369, out_features=1, bias=True)
  (mlp_y): Linear(in_features=200, out_features=1, bias=True)
  (sigmoid): Sigmoid()
)
[08/18/2022 - 22:08:09] File "Devign/main.py", line 100  	Total Parameters : 1148553	
[08/18/2022 - 22:08:09] File "Devign/main.py", line 101  	####################################################################################################	
[08/18/2022 - 22:08:15] File "/home/<ANONYMOUS>/code/ReVeal/Devign/trainer.py", line 66  	Start Training	
…
