…
5.87it/s]load json -> msr mapping: 117046it [03:25, 135.56it/s]load json -> msr mapping: 117081it [03:25, 175.50it/s]load json -> msr mapping: 117102it [03:25, 168.90it/s]load json -> msr mapping: 117139it [03:25, 214.20it/s]load json -> msr mapping: 117237it [03:25, 402.56it/s]load json -> msr mapping: 117293it [03:25, 442.73it/s]load json -> msr mapping: 117325it [03:25, 570.34it/s]
0 keys missing from splits.csv
skipped 0 keys
[08/10/2022 - 23:23:11] File "Devign/main.py", line 83  	93787	11692	11846	0	
model: DevignModel(
  (ggnn): GatedGraphConv(
    (linears): ModuleList(
      (0): Linear(in_features=200, out_features=200, bias=True)
      (1): Linear(in_features=200, out_features=200, bias=True)
      (2): Linear(in_features=200, out_features=200, bias=True)
      (3): Linear(in_features=200, out_features=200, bias=True)
      (4): Linear(in_features=200, out_features=200, bias=True)
    )
    (gru): GRUCell(200, 200)
  )
  (conv_l1): Conv1d(200, 200, kernel_size=(3,), stride=(1,))
  (maxpool1): MaxPool1d(kernel_size=3, stride=2, padding=0, dilation=1, ceil_mode=False)
  (conv_l2): Conv1d(200, 200, kernel_size=(1,), stride=(1,))
  (maxpool2): MaxPool1d(kernel_size=2, stride=2, padding=0, dilation=1, ceil_mode=False)
  (conv_l1_for_concat): Conv1d(369, 369, kernel_size=(3,), stride=(1,))
  (maxpool1_for_concat): MaxPool1d(kernel_size=3, stride=2, padding=0, dilation=1, ceil_mode=False)
  (conv_l2_for_concat): Conv1d(369, 369, kernel_size=(1,), stride=(1,))
  (maxpool2_for_concat): MaxPool1d(kernel_size=2, stride=2, padding=0, dilation=1, ceil_mode=False)
  (mlp_z): Linear(in_features=369, out_features=1, bias=True)
  (mlp_y): Linear(in_features=200, out_features=1, bias=True)
  (sigmoid): Sigmoid()
)
[08/10/2022 - 23:23:11] File "Devign/main.py", line 101  	Total Parameters : 1148553	
[08/10/2022 - 23:23:11] File "Devign/main.py", line 102  	####################################################################################################	
[08/10/2022 - 23:23:15] File "/home/<ANONYMOUS>/code/ReVeal/Devign/trainer.py", line 66  	Start Training	
…
